app/src/main/assets/fooo.tflite (tflite, 60052 bytes, 8 tensors)

sequential/conv2d_1/Conv2D/ReadVariableOp f4 [1, 3, 3, 8]
0	0xbd957cac	-0.0729917
1	0x3eadee43	0.33970842
2	0xbe64b38e	-0.2233412
3	0x3ee061c1	0.4382458
4	0x3ce3f771	0.02782795
5	0x3ebecc57	0.37265274
6	0xbe1ed923	-0.15512519
7	0x3de23101	0.11044503
8	0x3e744e40	0.23857975
9	0x3eb8f761	0.36126235
10	0xbf1a46b3	-0.6026413
11	0xbeb86422	-0.36013895
12	0x3eb62413	0.35574397
13	0x3eaa6d72	0.33286625
14	0x3dfb29dc	0.122638434
15	0x3e884785	0.26617065
16	0x3debc3cc	0.11511955
17	0x3f140d8f	0.5783319
18	0xbea93b8f	-0.33053252
19	0xbf18196d	-0.59413797
20	0xbdb0583e	-0.08610581
21	0x3d5b7a22	0.05358327
22	0x3e468675	0.19387229
23	0x3e7a34dd	0.24434228
24	0x3ed11ed4	0.40843832
25	0xbc3d43d7	-0.011551819
26	0x3e839499	0.2569931
27	0x3eaa0161	0.33204177
28	0x3ea75b58	0.32686877
29	0x3d8fb715	0.07017342
30	0xbe187702	-0.14889148
31	0x3e5bd3ab	0.21467464
32	0x3eb8a5d2	0.3606401
33	0x3dba1144	0.090853244
34	0x3e1f84fb	0.15578072
35	0x3ee19f54	0.4406687
36	0x3db58fd1	0.088653214
37	0xbf0346f7	-0.5128016
38	0xbdada292	-0.084782735
39	0x3e1d6b40	0.15372944
40	0xbd44c786	-0.048041843
41	0x3e29bb2a	0.16575304
42	0x3cf7eb56	0.030263584
43	0xbee34dc1	-0.4439526
44	0xbee20c63	-0.44150075
45	0xbf0936dd	-0.5359934
46	0x3e850a74	0.25984538
47	0x3d6705cc	0.056402013
48	0xbde1e48f	-0.11029922
49	0xbf11f2c9	-0.57011086
50	0x3e640553	0.22267656
51	0xbd9196fe	-0.071088776
52	0x3ec375f6	0.38175935
53	0xbe3dc1b0	-0.18530917
54	0xbcf3a844	-0.029743321
55	0x3e9d4cf7	0.30722782
56	0xbeb62cf2	-0.35581166
57	0xbf081676	-0.5315927
58	0x3e9a0a0a	0.30085784
59	0x3ef458e8	0.4772408
60	0xbe7f8fe7	-0.24957238
61	0x3e08529c	0.13312763
62	0xbe2021ce	-0.15637895
63	0x3e68cc49	0.22734179
64	0xbf15da97	-0.58536667
65	0xbee5bb2f	-0.44869372
66	0x3e9497b0	0.29021978
67	0x3d43fad7	0.04784664
68	0xbf2d1a0c	-0.6761787
69	0x3f0f9a57	0.5609488
70	0x3ea6dc4d	0.3258995
71	0x3dac81f7	0.08423226

sequential/conv2d_1/Conv2D_bias f4 [8]
0	0xbc9dc945	-0.019261012
1	0xbb3cd352	-0.002881248
2	0xbc162f7b	-0.009166594
3	0xbd6de8a9	-0.05808321
4	0xbc18ffa9	-0.009338298
5	0xbe335011	-0.17511012
6	0xbbb2fa70	-0.0054619834
7	0x3d200adf	0.039072867

sequential/conv2d_2/Conv2D/ReadVariableOp f4 [16, 3, 3, 8]
0	0x3e83035e	0.25588506
1	0x3e0a1d2b	0.13487689
2	0xbd041ad3	-0.032252144
3	0x3d98b95f	0.07457232
4	0xbf3e4935	-0.74330455
5	0xbd491863	-0.049095523
6	0xbde30cbc	-0.11086413
7	0xbefafb38	-0.4901979
8	0xbd56c505	-0.052433986
9	0x3e7dd02f	0.24786447
10	0x3e3872af	0.18012498
11	0x3e20bdf3	0.1569746
12	0xbf085b63	-0.53264445
13	0xbc703f77	-0.014663569
14	0xbe113d4d	-0.1418354
15	0xbeaeab98	-0.3411529
16	0xbcac0620	-0.020999014
17	0x3e8f6ab8	0.28011107
18	0xbebd144d	-0.3692955
19	0xbdf687e6	-0.12037639
20	0x3d918311	0.07105077
21	0xbeb6ae9d	-0.35680094
22	0x3e17d9bd	0.14829154
23	0x3d9b30e9	0.07577688
24	0xbea6c622	-0.32573038
25	0xbe0492f0	-0.12946677
26	0x3d8dd2a5	0.06924943
27	0xbe975ced	-0.29563084
28	0xbf2584c1	-0.6465569
29	0xbe789bc2	-0.24278167
30	0x3e4c74b5	0.19966395
31	0xbea88b1c	-0.32918632
32	0xbf2db6ca	-0.6785704
33	0x3ef157ba	0.47137243
34	0x3edd3afa	0.43209058
35	0x3ea53534	0.32267153
36	0xbe96128c	-0.29311025
37	0xbc5ec848	-0.013597555
38	0x3cef1f69	0.029189782
39	0xbddc41c8	-0.10754734
40	0xbebfe170	-0.37476683
41	0x3f062133	0.5239441
42	0xbe0a1716	-0.13485369
43	0xbdaacac1	-0.083394535
44	0xbefd14db	-0.49429974
45	0xbe80ebbe	-0.25179857
46	0xbf238d16	-0.63887155
47	0xbeba8ce6	-0.36435622
48	0x3e3af95b	0.18259184
49	0xbd832de4	-0.06405237
50	0xbd894564	-0.06702688
51	0x3cc42d87	0.02394749
52	0x3f0e556c	0.55599093
53	0xbd6e78b6	-0.058220588
54	0x3c0904da	0.008362973
55	0x3e76d575	0.24104865
56	0xbdbb70c9	-0.091523714
57	0xbd2e7445	-0.042591352
58	0x3d750f49	0.05982903
59	0x3e37b99e	0.17941901
60	0x3d8365ed	0.06415925
61	0x3d450d90	0.048108637
62	0xbd26e123	-0.04074205
63	0x3d562ac1	0.052286867
64	0x3d913f70	0.07092178
65	0x3e3f8091	0.18701388
66	0x3ef12bbf	0.47103688
67	0x3effe3e0	0.49978542
68	0xbe8fb0c5	-0.28064552
69	0x3d02fb32	0.03197784
70	0x3e870ce3	0.2637702
71	0x3dd766aa	0.105176285
72	0xbe1f7d3a	-0.15575114
73	0x3db50039	0.08837933
74	0xbe2585e2	-0.16164353
75	0xbd524f60	-0.05134523
76	0x3e7a2c8b	0.24431054
77	0xbe053ac5	-0.130107
78	0xbdeb0421	-0.11475397
79	0xbdd9716b	-0.10617336
80	0x3e46c70f	0.19411872
81	0xbdd397e7	-0.103317074
82	0xbd3dc52c	-0.046330616
83	0x3dd1e41a	0.10248585
84	0x3e5bd265	0.21466978
85	0xbcd698b8	-0.026195869
86	0xbcd24dd8	-0.025671884
87	0x3d72b1a9	0.05925146
88	0x3ef049f7	0.4693143
89	0xbe8019f6	-0.25019807
90	0x3ef8c4c6	0.48587626
91	0xbdc81851	-0.09770263
92	0xbde052e7	-0.10953312
93	0x3ef6eee2	0.48229128
94	0xbe446f7b	-0.19183151
95	0x3d2b6051	0.0418399
96	0xbdb780f1	-0.089601405
97	0x3d600fda	0.054702617
98	0xbeb08a3d	-0.34480467
99	0xbdcd9fe2	-0.10040261
100	0xbe80f7d3	-0.25189075
101	0xbe560c0e	-0.20903036
102	0x3e2ea925	0.17056711
103	0xbd328308	-0.043581992
104	0xbde30b47	-0.11086135
105	0x3d5ad789	0.053428207
106	0x3e372bee	0.17887852
107	0x3d899ab6	0.06718962
108	0xbdaba933	-0.083818816
109	0xbe0a73ae	-0.13520691
110	0x3dc1483a	0.09437604
111	0x3e1ad0e9	0.15118755
112	0xbd1e3c96	-0.038631998
113	0x3dfca3f1	0.12335957
114	0xbd9edde1	-0.07757164
115	0xbdc9e567	-0.09858208
116	0xbe029941	-0.12753774
117	0x3e6263e9	0.22108425
118	0x3d132ca6	0.035931252
119	0x3dc6edd5	0.097133316
120	0xbe2c4e74	-0.16826802
121	0x3e299e99	0.16564406
122	0x3ea36086	0.3190958
123	0xbd99fbcd	-0.0751873
124	0xbec33ab2	-0.38130718
125	0xbe402c04	-0.1876679
126	0xbe3e64ed	-0.18593188
127	0xbee28657	-0.44243118
128	0x3d6e05d4	0.058111027
129	0x3ec2793d	0.37983122
130	0xbe86cc81	-0.263279
131	0xbdb6cb66	-0.08925514
132	0xbf056a63	-0.5211546
133	0x3d987c4f	0.07445585
134	0xbe7c201e	-0.24621627
135	0xbebdf8da	-0.3710392
136	0x3e899e66	0.2687866
137	0x3eeaa663	0.45830068
138	0xbd054b34	-0.032542422
139	0xbdd12bc6	-0.10213427
140	0xbebd67fe	-0.36993402
141	0xbe0f9575	-0.14021857
142	0xbe64f78b	-0.22360055
143	0xbe6074f4	-0.21919614
144	0xbd82a066	-0.0637825
145	0x3e47dac5	0.19517048
146	0xbe830a89	-0.25593975
147	0xbd7fc457	-0.062443104
148	0xbda462b6	-0.0802664
149	0xbe80ef3a	-0.25182515
150	0x3ddfb079	0.10922331
151	0xbc8799eb	-0.016552886
152	0xbd4cb02b	-0.049972694
153	0x3e232eec	0.15935868
154	0xbe828ec8	-0.25499558
155	0xbe5c39f0	-0.21506476
156	0xbe64dc47	-0.22349654
157	0xbc55b7cb	-0.013044308
158	0xbdeb03be	-0.11475323
159	0xbc0812b8	-0.008305244
160	0xbdd1e79b	-0.10249253
161	0xbe70cb4a	-0.23515049
162	0xbf04b764	-0.5184233
163	0xbee1728b	-0.44032702
164	0x3d6880a3	0.056763303
165	0x3f01a480	0.5064163
166	0x3dd5cfe6	0.10440044
167	0xbe207db3	-0.1567295
168	0x3d2e7094	0.04258783
169	0x3d534bec	0.051586077
170	0x3eb4d1dc	0.3531636
171	0xbe4160b5	-0.18884547
172	0x3ec0c225	0.3764812
173	0x3d42c009	0.04754642
174	0xbdc0651d	-0.09394286
175	0x3e067834	0.13131791
176	0xbea6d6d8	-0.32585788
177	0xbe1a2508	-0.15053189
178	0xbde97dff	-0.11400985
179	0xbea15c63	-0.31515798
180	0xbe06d1d8	-0.13165987
181	0x3c14af64	0.0090750195
182	0x3d418589	0.04724649
183	0x3a5c8daa	0.00084134436
184	0x3e3b9f22	0.18322423
185	0xbe1e57e4	-0.15463215
186	0xbe33f995	-0.17575677
187	0xbdea3dd8	-0.11437577
188	0x3e9ec33c	0.31008327
189	0xbe2e5f76	-0.17028603
190	0x3ea1da2e	0.3161177
191	0x3e982990	0.2971921
192	0x3da89802	0.08232118
193	0x3da4cb31	0.08046568
194	0xbe53a430	-0.20668101
195	0xbe489e65	-0.19591673
196	0x3e8d4070	0.27588224
197	0xbd27c2b4	-0.040957168
198	0xbe2c82da	-0.16846791
199	0xbeb3ee05	-0.35142532
200	0x3c923550	0.017847687
201	0xbe8fce38	-0.2808702
202	0xbe610305	-0.21973808
203	0xbd54d4d4	-0.05196078
204	0x3e1a673a	0.1507844
205	0xbf05ff41	-0.5234261
206	0x3dcbf7e1	0.099593885
207	0xbd475cd0	-0.048672497
208	0xbe18df3c	-0.14928907
209	0xbda9e506	-0.08295636
210	0xbe8dc934	-0.27692568
211	0xbd80f551	-0.062967904
212	0x3dd7da1a	0.105396464
213	0xbe80e240	-0.25172615
214	0x3ec986dc	0.39360702
215	0x3e8b7421	0.27237037
216	0xbe3a29b9	-0.18179978
217	0x3d93f991	0.072253354
218	0xbec93cd0	-0.3930421
219	0x3e630dae	0.22173187
220	0xbc34005c	-0.010986414
221	0xbc12036c	-0.008911949
222	0x3e566da3	0.2094026
223	0x3d55fe60	0.052244544
224	0xbf113116	-0.56715524
225	0xbe03783f	-0.12838839
226	0xbee0df13	-0.43920192
227	0x3e895785	0.26824585
228	0xbdfa44b9	-0.12220139
229	0x3ddfe40c	0.10932168
230	0x3d89d25f	0.06729578
231	0x3ccaaa00	0.024739265
232	0xbe31fc49	-0.17381395
233	0xbd9f7ced	-0.077874996
234	0xbd65a5f2	-0.05606646
235	0x3e1e8554	0.15480548
236	0x3ed1cdc5	0.40977302
237	0x3da18d48	0.078882754
238	0x3e050783	0.12991147
239	0x3de925cc	0.11384162
240	0xbe161354	-0.1465581
241	0x3e6211dc	0.22077125
242	0xbd9ac7b6	-0.07557623
243	0x3e744956	0.238561
244	0xbe639160	-0.22223425
245	0xbe3d2137	-0.18469702
246	0x3de029d3	0.10945477
247	0xbe15fc1e	-0.14646956
248	0xbef6d6b1	-0.48210672
249	0xbd62907a	-0.055313565
250	0xbd4db49e	-0.050221078
251	0x3e89f3d2	0.26943833
252	0xbf0eb6b4	-0.5574753
253	0xbe2c1e31	-0.16808392
254	0x3e3db519	0.18526115
255	0xbd9b812b	-0.07592996

sequential/conv2d_2/Conv2D_bias f4 [16]
0	0xbe30cb69	-0.17265095
1	0x3cccb071	0.024986478
2	0xbcdd1c8d	-0.026991153
3	0xbe792cdc	-0.24333519
4	0xbe2e6cfd	-0.17033763
5	0xbec519b4	-0.38496172
6	0x3cc3940a	0.023874301
7	0xbee5a215	-0.4485022
8	0xbc7821ac	-0.015144747
9	0xbda43f7b	-0.080199204
10	0xba1bff91	-0.0005950863
11	0xbed30812	-0.41217095
12	0xbafa5b00	-0.0019100606
13	0x3c69d67a	0.014272327
14	0xbe692a52	-0.2277005
15	0xbdd6dfe0	-0.104919195

sequential/dense_1/MatMul/ReadVariableOp/transpose f4 [32, 400]
0	0xbcb65ad2	-0.022260103
1	0x3e5904b9	0.21193208
2	0xbd6ed1a6	-0.058305405
3	0xbc247e49	-0.010039874
4	0x3e31f94c	0.17380255
5	0xbd150760	-0.036383986
6	0x3df3c35d	0.11902497
7	0x3eb8d4d3	0.36099872
8	0x3cb0790a	0.02154209
9	0x3e842c21	0.25814918
10	0x3e3311b3	0.1748722
11	0x3e43e683	0.19130902
12	0x3d4bbadd	0.049738754
13	0x3dbc127d	0.09183214
14	0xbd436994	-0.04770811
15	0x3d64da09	0.055871997
16	0x3caf50d4	0.021400847
17	0x3f0a7af6	0.54093874
18	0x3db02dea	0.086025074
19	0x3e31d1b5	0.17365153
20	0x3dc47978	0.09593481
21	0x3b872862	0.004124687
22	0x3e20c504	0.15700155
23	0x3d466435	0.04843541
24	0xbdd96f8f	-0.10616981
25	0x3f0c40fb	0.5478665
26	0x3f0cf185	0.5505603
27	0x3df3faa5	0.11913041
28	0x3d56b7c0	0.05242133
29	0x3dd092f6	0.101842806
30	0x3e13fe6c	0.14452523
31	0xbde0c4bd	-0.10975025
32	0xbc81de5a	-0.015853096
33	0x3ee0c328	0.43898892
34	0xbc34460d	-0.0110030295
35	0x3e5b42e2	0.21412233
36	0xbbc62ec6	-0.0060480563
37	0x3e09678c	0.13418406
38	0xbdabc8a2	-0.08387877
39	0xbc818de7	-0.015814735
40	0xbe23dee7	-0.16002999
41	0x3e2a1fca	0.16613689
42	0x3eed2b57	0.46322128
43	0x3e388f53	0.18023424
44	0xbd5f7f2b	-0.054564636
45	0xbbe6c0d4	-0.00704203
46	0x3ea50b8a	0.32235366
47	0xbdb35a14	-0.087574154
48	0xbce65994	-0.028118886
49	0x3ea1f1e9	0.31629875
50	0xbda63caf	-0.08117043
51	0x3e90de5a	0.2829464
52	0xbd1ebf43	-0.03875662
53	0x3da51ba1	0.080619104
54	0xbeaeb157	-0.34119675
55	0xbc939266	-0.018014144
56	0x3d8c24c6	0.068429515
57	0x3dbf9251	0.093540795
58	0xbe009618	-0.12557256
59	0x3deb747c	0.11496827
60	0x3c513195	0.012768169
61	0xbe638df2	-0.22222117
62	0x3eab46cd	0.33452454
63	0x3dd4e480	0.103951454
64	0x3b3ac06f	0.0028496047
65	0xbc3bf3e6	-0.011471724
66	0x3cd097fe	0.0254631
67	0x3dbb9991	0.0916015
68	0xbcb3ebc2	-0.021963004
69	0x3c8ecf53	0.017432844
70	0xbe8efcb2	-0.27927166
71	0xbe34ebf3	-0.17668132
72	0x3dc7a4c6	0.09748225
73	0xbe0af87a	-0.13571349
74	0xbe86a3c0	-0.26296806
75	0xbdc884b4	-0.09790936
76	0xbe5350e4	-0.20636326
77	0xbead4bd1	-0.33846906
78	0x3ea167fa	0.3152464
79	0x3df623a2	0.12018515
80	0x3e1bc5a0	0.15212107
81	0x3e01d1c7	0.1267768
82	0xbcf9e39b	-0.030504039
83	0xbe1953fc	-0.14973444
84	0x3e1162e5	0.14197882
85	0xbbd04e45	-0.0063569867
86	0x3e944c23	0.28964338
87	0x3e8042af	0.25050876
88	0xbda34acd	-0.079732515
89	0x3ea5d444	0.32388508
90	0x3f0f1f3a	0.5590702
91	0x3eb5f5b7	0.35539028
92	0xbc90acb1	-0.01766047
93	0x3e0023e5	0.12513693
94	0xbd8b11fd	-0.0679054
95	0x3e565675	0.20931418
96	0x3dfa057f	0.122080795
97	0x3d8c4c44	0.06850484
98	0xbda145cf	-0.07874643
99	0xbdd99d86	-0.10625748
100	0xbd43d64c	-0.04781179
101	0xbce75432	-0.02823839
102	0x3e0742a5	0.13209017
103	0x3cc5cfec	0.024146996
104	0xbc929083	-0.017891174
105	0x3e9a6f34	0.30162966
106	0x3efe1e91	0.49632695
107	0x3f29ae3d	0.6628149
108	0xbc3f617d	-0.011680958
109	0xbe925ef8	-0.2858808
110	0xbda4c384	-0.08045104
111	0xbea537a0	-0.32269
112	0x3dd91a36	0.106007025
113	0x3de5cddd	0.11220906
114	0x3dc04bf0	0.09389484
115	0x3ea2ac22	0.31771952
116	0xbd6ece82	-0.05830241
117	0xbce6db50	-0.028180748
118	0x3de0088e	0.10939132
119	0xba46482f	-0.0007563857
120	0x3d2feaec	0.04294865
121	0x3e1f3dff	0.15550993
122	0x3e94253e	0.28934664
123	0x3ee3e513	0.44510707
124	0xbd237985	-0.039910812
125	0xbd6098fa	-0.05483339
126	0x3df0fb4e	0.117666826
127	0xbe9e732a	-0.30947238
128	0xbd09580d	-0.033531237
129	0xbd24402c	-0.04010026
130	0x3db4fea4	0.08837631
131	0x3e33b68c	0.17550105
132	0xbcd7d9c5	-0.026348958
133	0xbd77c732	-0.0604927
134	0xbe30cf13	-0.17266493
135	0x3bc37e94	0.005966017
136	0x3e49226a	0.19642034
137	0xbbc2af46	-0.0059413044
138	0xbeb5d443	-0.35513505
139	0x3e48ba0d	0.19602223
140	0xbd4f829b	-0.050661664
141	0xbd58f517	-0.05296811
142	0x3d231daa	0.03982321
143	0x3e03bc22	0.12864736
144	0xbc7a31af	-0.015270635
145	0xbec1d808	-0.3786013
146	0x3e2148d7	0.15750442
147	0x3d0c952d	0.034321953
148	0xbc8c2692	-0.017108236
149	0xbd2ac1ed	-0.04168885
150	0xbd9d2781	-0.076735504
151	0x3d9c8ba3	0.07643821
152	0xbc99ef8c	-0.018790983
153	0xbe837230	-0.25673056
154	0xbeefa611	-0.46806386
155	0xbe0d152d	-0.13777609
156	0x3b87f172	0.0041486556
157	0x3db0bd6c	0.08629879
158	0x3d04018f	0.03222805
159	0x3d6e9984	0.058251873
160	0x3e64235a	0.2227911
161	0xbc02fd87	-0.007995016
162	0xbe49c56f	-0.19704221
163	0xbe87969d	-0.26482096
164	0x3dfac6f9	0.12244982
165	0xbd82104c	-0.06350765
166	0x3f14f74b	0.5818984
167	0xbb8055f5	-0.003916497
168	0xbeaaedbe	-0.33384508
169	0x3eb55a7f	0.35420606
170	0x3eb0c883	0.34527978
171	0x3f1f5447	0.6223797
172	0xbc16d461	-0.0092059085
173	0xbe6c69ba	-0.23087206
174	0xbdefe775	-0.11714069
175	0x3cbf9bda	0.023389746
176	0x3e8a820f	0.27052352
177	0xbc980a3f	-0.018559573
178	0xbd85ee21	-0.0653956
179	0x3e14a933	0.1451767
180	0xbda5f953	-0.081041954
181	0xbdaea229	-0.08527023
182	0x3c93cdce	0.018042471
183	0xbdad5e78	-0.08465284
184	0xbec33da1	-0.38132957
185	0x3bd8ad8e	0.006612486
186	0x3e37baa3	0.1794229
187	0x3f14468f	0.57920164
188	0x3e2a8917	0.16653858
189	0x3ebbf934	0.36713564
190	0x3dc2ce64	0.09512022
191	0xbee488de	-0.4463567
192	0x3e658c54	0.22416812
193	0xbe71efad	-0.23626585
194	0x3eb214e0	0.3478155
195	0x3e75d000	0.24005127
196	0x3c993b89	0.018705146
197	0xbe652db4	-0.22380716
198	0xbc7c1c3e	-0.015387593
199	0xbccde437	-0.025133235
200	0x3e89d12c	0.26917398
201	0xbe067793	-0.13131551
202	0x3cbfb520	0.023401797
203	0x3ebc321a	0.36756974
204	0x3eb7ff3b	0.35936913
205	0x3e86b1e0	0.26307583
206	0x3db1ceec	0.08682045
207	0xbf4e368e	-0.80551994
208	0xbe15a37a	-0.14613143
209	0xbddaef0a	-0.10690124
210	0xbe01c32e	-0.12672111
211	0xbe00f363	-0.12592845
212	0xbc78ae7b	-0.015178318
213	0x3eb938bc	0.36176097
214	0x3e3d4e5b	0.18486921
215	0x3da933c9	0.0826183
216	0xbe5aa855	-0.21353276
217	0x3d8f5dfc	0.07000348
218	0xbef512ea	-0.47865993
219	0x3da18de9	0.07888395
220	0x3df0f5f5	0.117656626
221	0x3d8a6b19	0.067587085
222	0x3e1ff2ca	0.1561996
223	0x3db6ef6f	0.08932387
224	0xbde1fdb4	-0.11034718
225	0xbec05faa	-0.37572986
226	0xbdc2a52c	-0.0950416
227	0xbebbf9cd	-0.3671402
228	0xbd9f7807	-0.07786565
229	0x3dcde2ac	0.10053
230	0x3e5f0b3d	0.21781631
231	0x3e294c15	0.16532929
232	0xbe3f1a6f	-0.18662427
233	0xbdc8eff1	-0.0981139
234	0xbd1a0408	-0.0376015
235	0x3de85400	0.11344147
236	0x3eac916f	0.33704707
237	0x3e487739	0.1957673
238	0x3d2ef52b	0.04271428
239	0xbe33b4b4	-0.17549402
240	0x3da87482	0.08225347
241	0xbdcefc3b	-0.10106703
242	0xbcaa9d32	-0.02082691
243	0xbdb5d255	-0.08878008
244	0x3e0ded49	0.13860048
245	0x3d3e571b	0.04646979
246	0xbe10775b	-0.1410803
247	0xbcd19506	-0.025583755
248	0xbe317852	-0.17331055
249	0xbe0786c0	-0.13234997
250	0xbd4922ef	-0.04910558
251	0x3db02179	0.086001344
252	0x3e8cbfb2	0.27490002
253	0x3ec5457a	0.3852957
254	0xbdd229e0	-0.10261893
255	0x3d8295f1	0.06376255

sequential/dense_1/MatMul_bias f4 [32]
0	0xbedb817d	-0.4287223
1	0xbeaa927a	-0.33314878
2	0xbecfdb71	-0.40597108
3	0xbf2249b2	-0.633937
4	0xbe943bd5	-0.28951898
5	0xbebd6d0c	-0.3699726
6	0xbee7f96b	-0.45307478
7	0xbd1f0b26	-0.03882899
8	0xbf470380	-0.77739716
9	0xbf28129c	-0.65653396
10	0xbf0208ae	-0.50794494
11	0xbe863d8c	-0.26218832
12	0xbe9bbbde	-0.3041677
13	0xbf385943	-0.720112
14	0xbf3d622c	-0.73977923
15	0xbe8f41e4	-0.27979958
16	0xbf530254	-0.8242543
17	0xbe82944c	-0.25503767
18	0xbf16547b	-0.58722657
19	0xbefee370	-0.49782896
20	0xbee82018	-0.45336986
21	0xbf2a8910	-0.6661539
22	0xbf1f42ef	-0.6221151
23	0xbf5b967a	-0.85776484
24	0xbf0259a7	-0.5091805
25	0xbf0b61be	-0.5444602
26	0xbee91568	-0.45524144
27	0xbf2c9d09	-0.67427117
28	0xbf1bb09b	-0.60816354
29	0xbf33b5c0	-0.70199203
30	0xbf32d002	-0.69848645
31	0xbea488aa	-0.32135516

sequential/dense_2/MatMul/ReadVariableOp/transpose f4 [10, 32]
0	0xbfb47aae	-1.4099939
1	0xbfdf09d2	-1.7424872
2	0xbffb7195	-1.9644037
3	0x3e9f444c	0.31106794
4	0x3ee94015	0.45556703
5	0xbf630813	-0.88684195
6	0xbfadc5b9	-1.3575965
7	0xbef22c78	-0.47299552
8	0xbfc08ad3	-1.5042366
9	0x3e718ce9	0.23588909
10	0xbf922c6e	-1.1419809
11	0xbfcdb2f2	-1.6070235
12	0x3ee38e11	0.44444326
13	0x3e262a8b	0.16227166
14	0xbfc71728	-1.5553942
15	0xbf9d7e45	-1.2304159
16	0x3dcb3a5d	0.09923241
17	0xbf85a50a	-1.0440991
18	0xbfa865a2	-1.3156016
19	0x3e59b037	0.21258627
20	0xbf7eea62	-0.9957639
21	0xbf2310b5	-0.6369737
22	0xbfb462ea	-1.4092686
23	0x3e202a63	0.15641169
24	0xbf83a6e0	-1.0285301
25	0xbfd9de19	-1.7020904
26	0x3e8cf476	0.2753026
27	0xbf927ef1	-1.144499
28	0xbf5f28e5	-0.87171775
29	0xbfefcdce	-1.8734682
30	0x3e964ee8	0.29357076
31	0xbfc2c3e0	-1.5216026
32	0x3dc42d61	0.09578968
33	0x3d9f83f4	0.0778884
34	0xbf486dcb	-0.7829253
35	0xbfae46f3	-1.3615402
36	0x3ea22841	0.31671336
37	0x3e6d90c9	0.23199762
38	0x3e7f32cd	0.24921723
39	0x3fadf76f	1.3591136
40	0xbf3c5165	-0.735617
41	0xbf994166	-1.1973083
42	0x3e291d9b	0.165152
43	0x3ebe7f87	0.3720667
44	0x3e92d84d	0.2868065
45	0xbf930d87	-1.1488503
46	0xbf1e173e	-0.61754215
47	0x3e644e93	0.22295599
48	0xbf9dde10	-1.2333393
49	0xbd842cef	-0.06453883
50	0x3e95d539	0.29264238
51	0xbf9b6edf	-1.214321
52	0x3d188491	0.0372358
53	0xbf4137be	-0.7547568
54	0xbf1ca35b	-0.6118676
55	0xbfb659b7	-1.4246129
56	0x3dcaffe2	0.09912087
57	0xbf98cdba	-1.1937783
58	0x3e7098ed	0.23495837
59	0xbf83fc83	-1.0311435
60	0xbc8045b4	-0.015658237
61	0x3d09596a	0.033532538
62	0xbf92cc3f	-1.1468581
63	0xbf805a81	-1.002762
64	0x3e37c94f	0.17947887
65	0xbfb246f1	-1.39279
66	0xbf76212b	-0.9614436
67	0xbf850957	-1.0393475
68	0xbf8901ce	-1.0703676
69	0xbf9c8d92	-1.2230704
70	0xbf8885cf	-1.0665835
71	0xbf3be5ca	-0.73397505
72	0x3e1bc664	0.15212399
73	0x3e6361e1	0.22205307
74	0x3e608661	0.21926261
75	0xbf260418	-0.64849997
76	0xbf7eaad7	-0.9947943
77	0x3cda0734	0.026614763
78	0x3d82764b	0.06370219
79	0x3e9d98ba	0.30780584
80	0xbf3363ca	-0.7007414
81	0xbf2a0264	-0.664099
82	0x3e921efe	0.2853927
83	0xbafc9d8e	-0.0019273029
84	0xbfb39a45	-1.4031454
85	0x3da29d00	0.079401016
86	0x3daa1034	0.08303872
87	0xbfad550d	-1.354158
88	0x3df272bd	0.11838291
89	0xbf0bd5b3	-0.54622954
90	0x3e94d1dd	0.29066363
91	0xbf711fe4	-0.94189286
92	0xbf991d23	-1.1962017
93	0xbf7cb5db	-0.9871499
94	0xbf6b3493	-0.91877097
95	0xbf872d55	-1.0560709
96	0x3dc8daf5	0.09807388
97	0x3e448639	0.19191827
98	0xbf72e3f5	-0.94879085
99	0xbf81c9bf	-1.0139693
100	0xbfb81292	-1.4380667
101	0xbf33ef33	-0.70286864
102	0xbfa2d7ba	-1.2722085
103	0xbf65eb46	-0.89812124
104	0x3e8b9e23	0.27269086
105	0x3e1c38b6	0.15256009
106	0xbf343d5b	-0.7040612
107	0xbf4d734e	-0.80254066
108	0xbfc491e2	-1.535702
109	0xbf8be7c1	-1.0930101
110	0x3defa461	0.11701275
111	0xbf5237d9	-0.82116467
112	0x3e3da6e6	0.18520698
113	0x3f399c88	0.7250447
114	0x3ea96a1b	0.33088765
115	0x3e48befc	0.19604105
116	0xbf8d2a48	-1.1028528
117	0xbf898a95	-1.0745417
118	0xbf4eb813	-0.80749625
119	0xbf9b2154	-1.2119546
120	0xbf33722e	-0.700961
121	0x3ea133a7	0.3148472
122	0xbf50eab6	-0.8160814
123	0x3ee0cb90	0.43905306
124	0xbf7eac78	-0.99481916
125	0x3e136180	0.14392662
126	0xbfcafc7c	-1.5858302
127	0xbf4d2181	-0.8012925
128	0xbf828761	-1.0197564
129	0xbf81b035	-1.0131899
130	0x3e089120	0.13336611
131	0xbf88c710	-1.0685749
132	0x3ed41e0f	0.41429183
133	0xbf69239e	-0.9106997
134	0x3ec58d49	0.38584355
135	0xbf19d24a	-0.600865
136	0x3e8e2836	0.27765054
137	0xbfab310e	-1.3374345
138	0xbf4d0ff1	-0.8010245
139	0x3ed11aa2	0.40840632
140	0xbf6d3bbc	-0.9266927
141	0xbf577a29	-0.84170777
142	0xbfa997fc	-1.3249507
143	0xbf8bef26	-1.0932357
144	0xbf9a0a81	-1.2034456
145	0xbf4e8337	-0.8066897
146	0xbfa05bb4	-1.2527986
147	0xbfbbf34a	-1.4683621
148	0xbf5846fc	-0.84483314
149	0x3e2e60f2	0.17029169
150	0x3e9f2c37	0.3108842
151	0x3e103ceb	0.14085738
152	0x3e201fa4	0.1563707
153	0xbfb64855	-1.4240824
154	0x3e378809	0.17922987
155	0xbf63e70b	-0.8902442
156	0x3e2d0c75	0.16899283
157	0x3de1a631	0.110180266
158	0x3e70a0f7	0.23498903
159	0xbf3543dc	-0.7080667
160	0xbf8378aa	-1.0271199
161	0xbf3ca50b	-0.73689336
162	0x3da9d2e6	0.08292179
163	0x3e64eaff	0.22355269
164	0xbf9d790f	-1.2302569
165	0x3ea0d25c	0.3141049
166	0xbf320a4e	-0.69546974
167	0xbf176448	-0.5913739
168	0xbf43ec52	-0.7653247
169	0xbf840a7b	-1.0315698
170	0xbf924a15	-1.1428858
171	0xbfcb045e	-1.5860708
172	0xbf5a66bf	-0.8531303
173	0xbf683dfe	-0.9071959
174	0xbf8c237f	-1.0948333
175	0xbf8af075	-1.0854632
176	0x3e51599e	0.20444342
177	0x3e578dbd	0.21050163
178	0x3eb78b94	0.35848677
179	0xbf536934	-0.825824
180	0x3e0a8162	0.13525918
181	0xbf80eaa4	-1.0071607
182	0xbfb0f114	-1.3823571
183	0x3e3e6e49	0.18596758
184	0xbfa3af9b	-1.2787966
185	0x3eabf835	0.33587804
186	0xbfa2afc5	-1.2709891
187	0x3eed375a	0.46331292
188	0x3e3c8204	0.18408972
189	0x3e103eb0	0.14086413
190	0xbf4917bc	-0.7855184
191	0xbf82bfa7	-1.0214738
192	0xbf9fd4ca	-1.2486813
193	0xbff7e585	-1.9366919
194	0xbf69e864	-0.91370225
195	0xbf41de79	-0.7573009
196	0xbf5dfe9c	-0.8671663
197	0x3eaa85c9	0.33305195
198	0xbfb1f4eb	-1.3902868
199	0xbf2cc4db	-0.6748788
200	0xbfd22d8d	-1.6420151
201	0xbf765b6e	-0.9623326
202	0x3e5ae2b8	0.21375549
203	0xbf549a60	-0.8304806
204	0x3edc2d23	0.43003187
205	0x3df55d46	0.11980681
206	0xbffc6a03	-1.9719852
207	0xbfa606e9	-1.2970859
208	0xbf81762f	-1.0114192
209	0xbf54eff7	-0.8317866
210	0xbf49acc1	-0.78779227
211	0xbfa8525b	-1.3150133
212	0x3e5a0fde	0.21295115
213	0x3e8173ca	0.25283653
214	0xbf80e74f	-1.007059
215	0x3e649d68	0.2232567
216	0x3dacff33	0.08447113
217	0xbf624a57	-0.88394684
218	0xbf4cd292	-0.80008805
219	0x3ecdc4d2	0.40189224
220	0x3e6977ba	0.22799578
221	0xbfb822b1	-1.4385587
222	0x3e92f6ae	0.28703827
223	0xbfc12193	-1.5088371
224	0x3dbc5c52	0.09197296
225	0xbf82c83d	-1.0217358
226	0x3d0d90af	0.03456181
227	0x3e2dd240	0.16974735
228	0xbf09a99f	-0.53774446
229	0xbf8cda40	-1.1004105
230	0xbeb443ba	-0.3520792
231	0xbf292316	-0.6606916
232	0xbf249fd2	-0.64306366
233	0xbf4cfd19	-0.80073696
234	0x3e3ffecc	0.18749541
235	0x3ed0ec96	0.408055
236	0x3e32b045	0.17450054
237	0xbfb9e0bb	-1.4521707
238	0x3dce0e99	0.10061378
239	0xbf4d633b	-0.8022954
240	0x3d6ff895	0.058586676
241	0xbf3d0b80	-0.7384567
242	0xbec595d3	-0.3859087
243	0x3dad20a8	0.08453494
244	0xbfec6a6d	-1.8469979
245	0xbf89ab6d	-1.075544
246	0x3e9fdc13	0.3122259
247	0xbf9ebfb0	-1.2402248
248	0x3df58191	0.119876035
249	0x3e4e72df	0.20161007
250	0x3e48b612	0.19600704
251	0xbfbf77f0	-1.4958477
252	0xbfc0b3db	-1.5054888
253	0x3c35aca8	0.011088528
254	0xbf9f4f9e	-1.2446172
255	0x3efeb42c	0.49746835

sequential/dense_2/MatMul_bias f4 [10]
0	0x3f0b2dc9	0.5436674
1	0xbf789f51	-0.971181
2	0xbe22ca70	-0.15897536
3	0xbeca9b56	-0.39571637
4	0xbf4f6512	-0.81013596
5	0xbe3fbb1a	-0.18723717
6	0xbe59a969	-0.21256031
7	0xbf5a8797	-0.85363144
8	0x3f9330f6	1.1499317
9	0x3f02e5dc	0.5113199
